…
2023-12-24 23:28:08,406 INFO: Use cpu prefetch dataloader: num_prefetch_queue = 4
number of items-  1838
number of items-  1838
2023-12-24 23:28:08,407 INFO: Training statistics:
	Number of train images: 1838
	Dataset enlarge ratio: 100
	Batch size per gpu: 1
	World size (gpu number): 4
	Require iter number per epoch: 45950
	Total epochs: 35; iters: 1600000.
2023-12-24 23:28:08,993 INFO: Network [VQAutoEncoder] is created.
2023-12-24 23:28:10,452 INFO: Network: DistributedDataParallel - VQAutoEncoder, with parameters: 63,740,099
2023-12-24 23:28:10,452 INFO: VQAutoEncoder(
  (encoder): Encoder(
    (blocks): ModuleList(
      (0): Conv2d(3, 64, kernel_size=(3, 3), stride=(1, 1), padding=(1, 1))
      (1-2): 2 x ResBlock(
        (norm1): GroupNorm(32, 64, eps=1e-06, affine=True)
        (conv1): Conv2d(64, 64, kernel_size=(3, 3), stride=(1, 1), padding=(1, 1))
        (norm2): GroupNorm(32, 64, eps=1e-06, affine=True)
        (conv2): Conv2d(64, 64, kernel_size=(3, 3), stride=(1, 1), padding=(1, 1))
      )
      (3): Downsample(
        (conv): Conv2d(64, 64, kernel_size=(3, 3), stride=(2, 2))
      )
      (4): ResBlock(
        (norm1): GroupNorm(32, 64, eps=1e-06, affine=True)
        (conv1): Conv2d(64, 128, kernel_size=(3, 3), stride=(1, 1), padding=(1, 1))
        (norm2): GroupNorm(32, 128, eps=1e-06, affine=True)
        (conv2): Conv2d(128, 128, kernel_size=(3, 3), stride=(1, 1), padding=(1, 1))
        (conv_out): Conv2d(64, 128, kernel_size=(1, 1), stride=(1, 1))
      )
      (5): ResBlock(
        (norm1): GroupNorm(32, 128, eps=1e-06, affine=True)
        (conv1): Conv2d(128, 128, kernel_size=(3, 3), stride=(1, 1), padding=(1, 1))
        (norm2): GroupNorm(32, 128, eps=1e-06, affine=True)
        (conv2): Conv2d(128, 128, kernel_size=(3, 3), stride=(1, 1), padding=(1, 1))
      )
      (6): Downsample(
        (conv): Conv2d(128, 128, kernel_size=(3, 3), stride=(2, 2))
      )
      (7-8): 2 x ResBlock(
        (norm1): GroupNorm(32, 128, eps=1e-06, affine=True)
        (conv1): Conv2d(128, 128, kernel_size=(3, 3), stride=(1, 1), padding=(1, 1))
        (norm2): GroupNorm(32, 128, eps=1e-06, affine=True)
        (conv2): Conv2d(128, 128, kernel_size=(3, 3), stride=(1, 1), padding=(1, 1))
      )
      (9): Downsample(
        (conv): Conv2d(128, 128, kernel_size=(3, 3), stride=(2, 2))
      )
      (10): ResBlock(
        (norm1): GroupNorm(32, 128, eps=1e-06, affine=True)
        (conv1): Conv2d(128, 256, kernel_size=(3, 3), stride=(1, 1), padding=(1, 1))
        (norm2): GroupNorm(32, 256, eps=1e-06, affine=True)
        (conv2): Conv2d(256, 256, kernel_size=(3, 3), stride=(1, 1), padding=(1, 1))
        (conv_out): Conv2d(128, 256, kernel_size=(1, 1), stride=(1, 1))
      )
      (11): ResBlock(
        (norm1): GroupNorm(32, 256, eps=1e-06, affine=True)
        (conv1): Conv2d(256, 256, kernel_size=(3, 3), stride=(1, 1), padding=(1, 1))
        (norm2): GroupNorm(32, 256, eps=1e-06, affine=True)
        (conv2): Conv2d(256, 256, kernel_size=(3, 3), stride=(1, 1), padding=(1, 1))
      )
      (12): Downsample(
        (conv): Conv2d(256, 256, kernel_size=(3, 3), stride=(2, 2))
      )
      (13-14): 2 x ResBlock(
        (norm1): GroupNorm(32, 256, eps=1e-06, affine=True)
        (conv1): Conv2d(256, 256, kernel_size=(3, 3), stride=(1, 1), padding=(1, 1))
        (norm2): GroupNorm(32, 256, eps=1e-06, affine=True)
        (conv2): Conv2d(256, 256, kernel_size=(3, 3), stride=(1, 1), padding=(1, 1))
      )
      (15): Downsample(
        (conv): Conv2d(256, 256, kernel_size=(3, 3), stride=(2, 2))
      )
      (16): ResBlock(
        (norm1): GroupNorm(32, 256, eps=1e-06, affine=True)
        (conv1): Conv2d(256, 512, kernel_size=(3, 3), stride=(1, 1), padding=(1, 1))
        (norm2): GroupNorm(32, 512, eps=1e-06, affine=True)
        (conv2): Conv2d(512, 512, kernel_size=(3, 3), stride=(1, 1), padding=(1, 1))
        (conv_out): Conv2d(256, 512, kernel_size=(1, 1), stride=(1, 1))
      )
      (17): AttnBlock(
        (norm): GroupNorm(32, 512, eps=1e-06, affine=True)
        (q): Conv2d(512, 512, kernel_size=(1, 1), stride=(1, 1))
        (k): Conv2d(512, 512, kernel_size=(1, 1), stride=(1, 1))
        (v): Conv2d(512, 512, kernel_size=(1, 1), stride=(1, 1))
        (proj_out): Conv2d(512, 512, kernel_size=(1, 1), stride=(1, 1))
      )
      (18): ResBlock(
        (norm1): GroupNorm(32, 512, eps=1e-06, affine=True)
        (conv1): Conv2d(512, 512, kernel_size=(3, 3), stride=(1, 1), padding=(1, 1))
        (norm2): GroupNorm(32, 512, eps=1e-06, affine=True)
        (conv2): Conv2d(512, 512, kernel_size=(3, 3), stride=(1, 1), padding=(1, 1))
      )
      (19): AttnBlock(
        (norm): GroupNorm(32, 512, eps=1e-06, affine=True)
        (q): Conv2d(512, 512, kernel_size=(1, 1), stride=(1, 1))
        (k): Conv2d(512, 512, kernel_size=(1, 1), stride=(1, 1))
        (v): Conv2d(512, 512, kernel_size=(1, 1), stride=(1, 1))
        (proj_out): Conv2d(512, 512, kernel_size=(1, 1), stride=(1, 1))
      )
      (20): ResBlock(
        (norm1): GroupNorm(32, 512, eps=1e-06, affine=True)
        (conv1): Conv2d(512, 512, kernel_size=(3, 3), stride=(1, 1), padding=(1, 1))
        (norm2): GroupNorm(32, 512, eps=1e-06, affine=True)
        (conv2): Conv2d(512, 512, kernel_size=(3, 3), stride=(1, 1), padding=(1, 1))
      )
      (21): AttnBlock(
        (norm): GroupNorm(32, 512, eps=1e-06, affine=True)
        (q): Conv2d(512, 512, kernel_size=(1, 1), stride=(1, 1))
        (k): Conv2d(512, 512, kernel_size=(1, 1), stride=(1, 1))
        (v): Conv2d(512, 512, kernel_size=(1, 1), stride=(1, 1))
        (proj_out): Conv2d(512, 512, kernel_size=(1, 1), stride=(1, 1))
      )
      (22): ResBlock(
        (norm1): GroupNorm(32, 512, eps=1e-06, affine=True)
        (conv1): Conv2d(512, 512, kernel_size=(3, 3), stride=(1, 1), padding=(1, 1))
        (norm2): GroupNorm(32, 512, eps=1e-06, affine=True)
        (conv2): Conv2d(512, 512, kernel_size=(3, 3), stride=(1, 1), padding=(1, 1))
      )
      (23): GroupNorm(32, 512, eps=1e-06, affine=True)
      (24): Conv2d(512, 256, kernel_size=(3, 3), stride=(1, 1), padding=(1, 1))
    )
  )
  (quantize): VectorQuantizer(
    (embedding): Embedding(1024, 256)
  )
  (generator): Generator(
    (blocks): ModuleList(
      (0): Conv2d(256, 512, kernel_size=(3, 3), stride=(1, 1), padding=(1, 1))
      (1): ResBlock(
        (norm1): GroupNorm(32, 512, eps=1e-06, affine=True)
        (conv1): Conv2d(512, 512, kernel_size=(3, 3), stride=(1, 1), padding=(1, 1))
        (norm2): GroupNorm(32, 512, eps=1e-06, affine=True)
        (conv2): Conv2d(512, 512, kernel_size=(3, 3), stride=(1, 1), padding=(1, 1))
      )
      (2): AttnBlock(
        (norm): GroupNorm(32, 512, eps=1e-06, affine=True)
        (q): Conv2d(512, 512, kernel_size=(1, 1), stride=(1, 1))
        (k): Conv2d(512, 512, kernel_size=(1, 1), stride=(1, 1))
        (v): Conv2d(512, 512, kernel_size=(1, 1), stride=(1, 1))
        (proj_out): Conv2d(512, 512, kernel_size=(1, 1), stride=(1, 1))
      )
      (3-4): 2 x ResBlock(
        (norm1): GroupNorm(32, 512, eps=1e-06, affine=True)
        (conv1): Conv2d(512, 512, kernel_size=(3, 3), stride=(1, 1), padding=(1, 1))
        (norm2): GroupNorm(32, 512, eps=1e-06, affine=True)
        (conv2): Conv2d(512, 512, kernel_size=(3, 3), stride=(1, 1), padding=(1, 1))
      )
      (5): AttnBlock(
        (norm): GroupNorm(32, 512, eps=1e-06, affine=True)
        (q): Conv2d(512, 512, kernel_size=(1, 1), stride=(1, 1))
        (k): Conv2d(512, 512, kernel_size=(1, 1), stride=(1, 1))
        (v): Conv2d(512, 512, kernel_size=(1, 1), stride=(1, 1))
        (proj_out): Conv2d(512, 512, kernel_size=(1, 1), stride=(1, 1))
      )
      (6): ResBlock(
        (norm1): GroupNorm(32, 512, eps=1e-06, affine=True)
        (conv1): Conv2d(512, 512, kernel_size=(3, 3), stride=(1, 1), padding=(1, 1))
        (norm2): GroupNorm(32, 512, eps=1e-06, affine=True)
        (conv2): Conv2d(512, 512, kernel_size=(3, 3), stride=(1, 1), padding=(1, 1))
      )
      (7): AttnBlock(
        (norm): GroupNorm(32, 512, eps=1e-06, affine=True)
        (q): Conv2d(512, 512, kernel_size=(1, 1), stride=(1, 1))
        (k): Conv2d(512, 512, kernel_size=(1, 1), stride=(1, 1))
        (v): Conv2d(512, 512, kernel_size=(1, 1), stride=(1, 1))
        (proj_out): Conv2d(512, 512, kernel_size=(1, 1), stride=(1, 1))
      )
      (8): Upsample(
        (conv): Conv2d(512, 512, kernel_size=(3, 3), stride=(1, 1), padding=(1, 1))
      )
      (9): ResBlock(
        (norm1): GroupNorm(32, 512, eps=1e-06, affine=True)
        (conv1): Conv2d(512, 256, kernel_size=(3, 3), stride=(1, 1), padding=(1, 1))
        (norm2): GroupNorm(32, 256, eps=1e-06, affine=True)
        (conv2): Conv2d(256, 256, kernel_size=(3, 3), stride=(1, 1), padding=(1, 1))
        (conv_out): Conv2d(512, 256, kernel_size=(1, 1), stride=(1, 1))
      )
      (10): ResBlock(
        (norm1): GroupNorm(32, 256, eps=1e-06, affine=True)
        (conv1): Conv2d(256, 256, kernel_size=(3, 3), stride=(1, 1), padding=(1, 1))
        (norm2): GroupNorm(32, 256, eps=1e-06, affine=True)
        (conv2): Conv2d(256, 256, kernel_size=(3, 3), stride=(1, 1), padding=(1, 1))
      )
      (11): Upsample(
        (conv): Conv2d(256, 256, kernel_size=(3, 3), stride=(1, 1), padding=(1, 1))
      )
      (12-13): 2 x ResBlock(
        (norm1): GroupNorm(32, 256, eps=1e-06, affine=True)
        (conv1): Conv2d(256, 256, kernel_size=(3, 3), stride=(1, 1), padding=(1, 1))
        (norm2): GroupNorm(32, 256, eps=1e-06, affine=True)
        (conv2): Conv2d(256, 256, kernel_size=(3, 3), stride=(1, 1), padding=(1, 1))
      )
      (14): Upsample(
        (conv): Conv2d(256, 256, kernel_size=(3, 3), stride=(1, 1), padding=(1, 1))
      )
      (15): ResBlock(
        (norm1): GroupNorm(32, 256, eps=1e-06, affine=True)
        (conv1): Conv2d(256, 128, kernel_size=(3, 3), stride=(1, 1), padding=(1, 1))
        (norm2): GroupNorm(32, 128, eps=1e-06, affine=True)
        (conv2): Conv2d(128, 128, kernel_size=(3, 3), stride=(1, 1), padding=(1, 1))
        (conv_out): Conv2d(256, 128, kernel_size=(1, 1), stride=(1, 1))
      )
      (16): ResBlock(
        (norm1): GroupNorm(32, 128, eps=1e-06, affine=True)
        (conv1): Conv2d(128, 128, kernel_size=(3, 3), stride=(1, 1), padding=(1, 1))
        (norm2): GroupNorm(32, 128, eps=1e-06, affine=True)
        (conv2): Conv2d(128, 128, kernel_size=(3, 3), stride=(1, 1), padding=(1, 1))
      )
      (17): Upsample(
        (conv): Conv2d(128, 128, kernel_size=(3, 3), stride=(1, 1), padding=(1, 1))
      )
      (18-19): 2 x ResBlock(
        (norm1): GroupNorm(32, 128, eps=1e-06, affine=True)
        (conv1): Conv2d(128, 128, kernel_size=(3, 3), stride=(1, 1), padding=(1, 1))
        (norm2): GroupNorm(32, 128, eps=1e-06, affine=True)
        (conv2): Conv2d(128, 128, kernel_size=(3, 3), stride=(1, 1), padding=(1, 1))
      )
      (20): Upsample(
        (conv): Conv2d(128, 128, kernel_size=(3, 3), stride=(1, 1), padding=(1, 1))
      )
      (21): ResBlock(
        (norm1): GroupNorm(32, 128, eps=1e-06, affine=True)
        (conv1): Conv2d(128, 64, kernel_size=(3, 3), stride=(1, 1), padding=(1, 1))
        (norm2): GroupNorm(32, 64, eps=1e-06, affine=True)
        (conv2): Conv2d(64, 64, kernel_size=(3, 3), stride=(1, 1), padding=(1, 1))
        (conv_out): Conv2d(128, 64, kernel_size=(1, 1), stride=(1, 1))
      )
      (22): ResBlock(
        (norm1): GroupNorm(32, 64, eps=1e-06, affine=True)
        (conv1): Conv2d(64, 64, kernel_size=(3, 3), stride=(1, 1), padding=(1, 1))
        (norm2): GroupNorm(32, 64, eps=1e-06, affine=True)
        (conv2): Conv2d(64, 64, kernel_size=(3, 3), stride=(1, 1), padding=(1, 1))
      )
      (23): GroupNorm(32, 64, eps=1e-06, affine=True)
      (24): Conv2d(64, 3, kernel_size=(3, 3), stride=(1, 1), padding=(1, 1))
    )
  )
)
2023-12-24 23:28:10,452 INFO: Use Exponential Moving Average with decay: 0.995
2023-12-24 23:28:11,051 INFO: Network [VQAutoEncoder] is created.
2023-12-24 23:28:11,183 INFO: Network [VQGANDiscriminator] is created.
2023-12-24 23:28:11,210 INFO: Network: DistributedDataParallel - VQGANDiscriminator, with parameters: 6,960,961
2023-12-24 23:28:11,210 INFO: VQGANDiscriminator(
  (main): Sequential(
    (0): Conv2d(3, 64, kernel_size=(4, 4), stride=(2, 2), padding=(1, 1))
    (1): LeakyReLU(negative_slope=0.2, inplace=True)
    (2): Conv2d(64, 128, kernel_size=(4, 4), stride=(2, 2), padding=(1, 1), bias=False)
    (3): BatchNorm2d(128, eps=1e-05, momentum=0.1, affine=True, track_running_stats=True)
    (4): LeakyReLU(negative_slope=0.2, inplace=True)
    (5): Conv2d(128, 256, kernel_size=(4, 4), stride=(2, 2), padding=(1, 1), bias=False)
    (6): BatchNorm2d(256, eps=1e-05, momentum=0.1, affine=True, track_running_stats=True)
    (7): LeakyReLU(negative_slope=0.2, inplace=True)
    (8): Conv2d(256, 512, kernel_size=(4, 4), stride=(2, 2), padding=(1, 1), bias=False)
    (9): BatchNorm2d(512, eps=1e-05, momentum=0.1, affine=True, track_running_stats=True)
    (10): LeakyReLU(negative_slope=0.2, inplace=True)
    (11): Conv2d(512, 512, kernel_size=(4, 4), stride=(1, 1), padding=(1, 1), bias=False)
    (12): BatchNorm2d(512, eps=1e-05, momentum=0.1, affine=True, track_running_stats=True)
    (13): LeakyReLU(negative_slope=0.2, inplace=True)
    (14): Conv2d(512, 1, kernel_size=(4, 4), stride=(1, 1), padding=(1, 1))
  )
)
Setting up [LPIPS] perceptual loss: trunk [vgg], v[0.1], spatial [off]
Setting up [LPIPS] perceptual loss: trunk [vgg], v[0.1], spatial [off]
Setting up [LPIPS] perceptual loss: trunk [vgg], v[0.1], spatial [off]
2023-12-24 23:28:11,211 INFO: Loss [L1Loss] is created.
Setting up [LPIPS] perceptual loss: trunk [vgg], v[0.1], spatial [off]
…
